…
,0.143,0.145,0.796,"(924, 182, 1066, 328)",1.png,"UniformLitGeometricClauseGenerator(out_dir(../data_generated), percentage_sat(0.50), seed(29000), min_n_vars(10), max_n_vars(30), min_n_clause(30), max_n_clause(60), lit_distr_p(0.40))",,,0.750,VariableToVariableGraph(max_clause_length(65)),4,4,"GCN2LayerLinear1LayerGNN(conv1(GCNConv(1, 16)), conv2(GCNConv(16, 4)), fc2(Linear(in_features=4, out_features=1, bias=True)))","AdamTrainer(learning_rate(0.001), weight_decay(0.0005))",500,,10000,
,0.096,0.089,0.896,"(59, 4, 53, 9)",2.png,"UniformLitGeometricClauseGenerator(out_dir(../data_generated), percentage_sat(0.50), seed(2000), min_n_vars(1), max_n_vars(5), min_n_clause(1), max_n_clause(5), lit_distr_p(0.40))",,,0.750,VariableToVariableGraph(max_clause_length(65)),32,32,"NNConvGNN(nn1(Sequential( (0): Linear(in_features=66, out_features=16, bias=True) (1): ReLU() (2): Linear(in_features=16, out_features=32, bias=True) )), conv1(NNConv(1, 32)), nn2(Sequential( (0): Linear(in_features=66, out_features=16, bias=True) (1): ReLU() (2): Linear(in_features=16, out_features=1024, bias=True) )), conv2(NNConv(32, 32)), nn3(Sequential( (0): Linear(in_features=66, out_features=16, bias=True) (1): ReLU() (2): Linear(in_features=16, out_features=1024, bias=True) )), conv3(NNConv(32, 32)), pooling (global_add_pool), fc1(Linear(in_features=32, out_features=32, bias=True)), fc2(Linear(in_features=32, out_features=1, bias=True)), sigmoid_output(True))","AdamTrainer(learning_rate(0.001), weight_decay(0.0005))",500,,500,
,0.238,0.221,0.609,"(789, 536, 733, 442)",3.png,"UniformLitGeometricClauseGenerator(out_dir(../
…
ion.GEOMETRIC), lit_in_clause_distr_params([0.2]), include_trivial_clause(False))","DistrBasedGenerator(percentage_sat(None), seed(79065), min_max_n_vars((20, 40)), min_max_n_clauses((50, 150)), var_num_distr(Distribution.UNIFORM), var_num_distr_params([]), clause_num_distr(Distribution.UNIFORM), clause_num_distr_params([]), lit_in_clause_distr(Distribution.GEOMETRIC), lit_in_clause_distr_params([0.2]), include_trivial_clause(False))",4000,0.750,ClauseToVariableGraph(),32,32,"VariableRepeatingNNConvGNN(sigmoid_output(True), dropout_prob(0), pooling(GlobalAttentionPooling(gate_nn(Sequential( (0): Linear(in_features=32, out_features=64, bias=True) (1): LeakyReLU(negative_slope=0.01) (2): Linear(in_features=64, out_features=1, bias=True) )), nn(Sequential( (0): Linear(in_features=32, out_features=64, bias=True) (1): LeakyReLU(negative_slope=0.01) (2): Linear(in_features=64, out_features=32, bias=True) )))), num_hidden_neurons(32), deep_nn(True), aggr(Aggr.ADD), nn1(Sequential( (0): Linear(in_features=1, out_features=8, bias=True) (1): LeakyReLU(negative_slope=0.01) (2): Linear(in_features=8, out_features=64, bias=True) )), conv1(NNConv(2, 32)), conv_repetition(20), ratio_test_train_rep(2), nn2(Sequential( (0): Linear(in_features=1, out_features=8, bias=True) (1): LeakyReLU(negative_slope=0.01) (2): Linear(in_features=8, out_features=1024, bias=True) )), convs([NNConv(32, 32), NNConv(32, 32), NNConv(32, 32)]), fc1(Linear(in_features=32, out_features=32, bias=True)), fc2(Linear(in_features=32, out_features=1, bias=True)), conv_min_max_rep((10, 20)))","AdamTrainer(learning_rate(0.00100), weight_decay(0.00050), num_epoch_before_halving_lr(33))",29,DefaultEvaluator(),,
9271.598,0.435,0.405,0.757,"(612,
…
on.GEOMETRIC), lit_in_clause_distr_params([0.2]), include_trivial_clause(False))","DistrBasedGenerator(percentage_sat(None), seed(46516), min_max_n_vars((20, 40)), min_max_n_clauses((50, 150)), var_num_distr(Distribution.UNIFORM), var_num_distr_params([]), clause_num_distr(Distribution.UNIFORM), clause_num_distr_params([]), lit_in_clause_distr(Distribution.GEOMETRIC), lit_in_clause_distr_params([0.2]), include_trivial_clause(False))",40000,0.750,ClauseToVariableGraph(),32,32,"VariableRepeatingNNConvGNN(sigmoid_output(True), dropout_prob(0), pooling(GlobalAttentionPooling(gate_nn(Sequential( (0): Linear(in_features=32, out_features=64, bias=True) (1): LeakyReLU(negative_slope=0.01) (2): Linear(in_features=64, out_features=1, bias=True) )), nn(Sequential( (0): Linear(in_features=32, out_features=64, bias=True) (1): LeakyReLU(negative_slope=0.01) (2): Linear(in_features=64, out_features=32, bias=True) )))), num_hidden_neurons(32), deep_nn(True), aggr(Aggr.MEAN), nn1(Sequential( (0): Linear(in_features=1, out_features=8, bias=True) (1): LeakyReLU(negative_slope=0.01) (2): Linear(in_features=8, out_features=64, bias=True) )), conv1(NNConv(2, 32)), conv_repetition(20), ratio_test_train_rep(2), nn2(Sequential( (0): Linear(in_features=1, out_features=8, bias=True) (1): LeakyReLU(negative_slope=0.01) (2): Linear(in_features=8, out_features=1024, bias=True) )), convs([NNConv(32, 32), NNConv(32, 32), NNConv(32, 32)]), fc1(Linear(in_features=32, out_features=32, bias=True)), fc2(Linear(in_features=32, out_features=1, bias=True)), conv_min_max_rep((10, 20)))","AdamTrainer(learning_rate(0.00100), weight_decay(0.00050), num_epoch_before_halving_lr(33))",3,DefaultEvaluator(),,
9175.281,0.400,0.382,0.788,"(620, 
…
on.GEOMETRIC), lit_in_clause_distr_params([0.2]), include_trivial_clause(False))","DistrBasedGenerator(percentage_sat(None), seed(11588), min_max_n_vars((20, 40)), min_max_n_clauses((50, 150)), var_num_distr(Distribution.UNIFORM), var_num_distr_params([]), clause_num_distr(Distribution.UNIFORM), clause_num_distr_params([]), lit_in_clause_distr(Distribution.GEOMETRIC), lit_in_clause_distr_params([0.2]), include_trivial_clause(False))",40000,0.750,ClauseToVariableGraph(),32,32,"VariableRepeatingNNConvGNN(sigmoid_output(True), dropout_prob(0), pooling(GlobalAttentionPooling(gate_nn(Sequential( (0): Linear(in_features=32, out_features=64, bias=True) (1): LeakyReLU(negative_slope=0.01) (2): Linear(in_features=64, out_features=1, bias=True) )), nn(Sequential( (0): Linear(in_features=32, out_features=64, bias=True) (1): LeakyReLU(negative_slope=0.01) (2): Linear(in_features=64, out_features=32, bias=True) )))), num_hidden_neurons(32), deep_nn(True), aggr(Aggr.MEAN), nn1(Sequential( (0): Linear(in_features=1, out_features=8, bias=True) (1): LeakyReLU(negative_slope=0.01) (2): Linear(in_features=8, out_features=64, bias=True) )), conv1(NNConv(2, 32)), conv_repetition(20), ratio_test_train_rep(2), nn2(Sequential( (0): Linear(in_features=1, out_features=8, bias=True) (1): LeakyReLU(negative_slope=0.01) (2): Linear(in_features=8, out_features=1024, bias=True) )), convs(ModuleList( (0): NNConv(32, 32) (1): NNConv(32, 32) (2): NNConv(32, 32) )), fc1(Linear(in_features=32, out_features=32, bias=True)), fc2(Linear(in_features=32, out_features=1, bias=True)), conv_min_max_rep((10, 20)))","AdamTrainer(learning_rate(0.00100), weight_decay(0.00050), num_epoch_before_halving_lr(33))",99,DefaultEvaluator(),,
7482.339
…
on.GEOMETRIC), lit_in_clause_distr_params([0.2]), include_trivial_clause(False))","DistrBasedGenerator(percentage_sat(None), seed(69761), min_max_n_vars((20, 60)), min_max_n_clauses((50, 250)), var_num_distr(Distribution.UNIFORM), var_num_distr_params([]), clause_num_distr(Distribution.UNIFORM), clause_num_distr_params([]), lit_in_clause_distr(Distribution.GEOMETRIC), lit_in_clause_distr_params([0.2]), include_trivial_clause(False))",40000,0.750,ClauseToVariableGraph(),32,32,"VariableRepeatingNNConvGNN(sigmoid_output(True), dropout_prob(0), pooling(GlobalAttentionPooling(gate_nn(Sequential( (0): Linear(in_features=32, out_features=64, bias=True) (1): LeakyReLU(negative_slope=0.01) (2): Linear(in_features=64, out_features=1, bias=True) )), nn(Sequential( (0): Linear(in_features=32, out_features=64, bias=True) (1): LeakyReLU(negative_slope=0.01) (2): Linear(in_features=64, out_features=32, bias=True) )))), num_hidden_neurons(32), deep_nn(True), aggr(Aggr.MEAN), nn1(Sequential( (0): Linear(in_features=1, out_features=8, bias=True) (1): LeakyReLU(negative_slope=0.01) (2): Linear(in_features=8, out_features=64, bias=True) )), conv1(NNConv(2, 32)), conv_repetition(30), ratio_test_train_rep(2), nn2(Sequential( (0): Linear(in_features=1, out_features=8, bias=True) (1): LeakyReLU(negative_slope=0.01) (2): Linear(in_features=8, out_features=1024, bias=True) )), convs(ModuleList( (0): NNConv(32, 32) (1): NNConv(32, 32) (2): NNConv(32, 32) )), fc1(Linear(in_features=32, out_features=32, bias=True)), fc2(Linear(in_features=32, out_features=1, bias=True)), conv_min_max_rep((10, 30)))","AdamTrainer(learning_rate(0.00100), weight_decay(0.00050), num_epoch_before_halving_lr(33))",54,DefaultEvaluator(),,
3703.810
…
Distribution.GEOMETRIC), lit_in_clause_distr_params([0.2]), include_trivial_clause(False))","DistrBasedGenerator(percentage_sat(None), seed(98850), min_max_n_vars((20, 60)), min_max_n_clauses((50, 250)), var_num_distr(Distribution.UNIFORM), var_num_distr_params([]), clause_num_distr(Distribution.UNIFORM), clause_num_distr_params([]), lit_in_clause_distr(Distribution.GEOMETRIC), lit_in_clause_distr_params([0.2]), include_trivial_clause(False))",400,0.750,ClauseToVariableGraph(),32,32,"RepeatingNNConvGNN(sigmoid_output(True), dropout_prob(0), pooling(GlobalAttentionPooling(gate_nn(Sequential( (0): Linear(in_features=32, out_features=64, bias=True) (1): LeakyReLU(negative_slope=0.01) (2): Linear(in_features=64, out_features=1, bias=True) )), nn(Sequential( (0): Linear(in_features=32, out_features=64, bias=True) (1): LeakyReLU(negative_slope=0.01) (2): Linear(in_features=64, out_features=32, bias=True) )))), num_hidden_neurons(32), deep_nn(True), aggr(Aggr.MEAN), nn1(Sequential( (0): Linear(in_features=1, out_features=8, bias=True) (1): LeakyReLU(negative_slope=0.01) (2): Linear(in_features=8, out_features=64, bias=True) )), conv1(NNConv(2, 32)), conv_repetition(20), ratio_test_train_rep(1), nn2(Sequential( (0): Linear(in_features=1, out_features=8, bias=True) (1): LeakyReLU(negative_slope=0.01) (2): Linear(in_features=8, out_features=1024, bias=True) )), convs(ModuleList( (0): NNConv(32, 32) (1): NNConv(32, 32) (2): NNConv(32, 32) )), fc1(Linear(in_features=32, out_features=32, bias=True)), fc2(Linear(in_features=32, out_features=1, bias=True)))","AdamTrainer(learning_rate(0.00100), weight_decay(0.00050), num_epoch_before_halving_lr(33))",39,DefaultEvaluator(),,
103.067,0.048,0.315,1.000,"(0, 0, 10
…
